so_compli.pt (torch_old, 34524 bytes, 2 tensors)

weight f4 [10, 784]
000000 00 1f 2c b9 12 14 9a 3c 42 ba d4 3c e4 09 b6 bb
       -0.00016414747 0.018808398 0.02596772 -0.0055553783
000010 c0 87 ca 3a 00 7e 47 ba 52 fa 0e bd 70 63 18 3b
       0.0015451834 -0.0007610023 -0.034906693 0.0023252629
000020 55 8e f6 bc ab 68 09 3d 08 7c d6 bc e0 50 fc ba
       -0.030097166 0.033547085 -0.02618219 -0.0019250177
000030 c2 94 23 be bd b9 46 be 66 20 3c be 35 d9 21 be
       -0.15974715 -0.19406791 -0.18371734 -0.15805514
000040 12 3f 9d 3c d8 0e 89 bb be 79 c8 bc 80 ed 70 3a
       0.019195113 -0.0041826777 -0.024472114 0.00091906637
000050 fc 04 cb 3c 1e 79 f3 3c 96 13 a5 3c 73 92 a3 bc
       0.02478265 0.02972084 0.02015094 -0.019967293
000060 f8 e4 b4 3b 0e 6d fd 3c a8 10 9d 3c a4 7f 15 3c
       0.0055204593 0.03093579 0.019172981 0.00912467
000070 33 2c 86 bc 68 94 a8 3b 90 5c 16 3b 80 da b6 bb
       -0.016378498 0.0051446445 0.0022943355 -0.0055802464
000080 e3 3b 00 ba 6b 91 86 bb 60 98 33 3b 1a 96 81 bc
       -0.00048917363 -0.0041066906 0.0027404055 -0.015818644
000090 4f fa 3f be 28 0a f7 be 2d fe 1b bf da b9 85 bf
       -0.18747829 -0.48249936 -0.60934716 -1.0447342
0000a0 e8 8c 2d bf ea 6d 3a bf 56 30 11 c0 fd 07 33 3f
       -0.6779313 -0.72823966 -2.2685752 0.69934064
0000b0 34 38 8c 3f 95 c1 b2 3f 46 0a 81 be d2 24 7c be
       1.0954652 1.3965327 -0.2520315 -0.24623421
0000c0 be 27 3a be 7f 31 12 be 90 3d 98 bd c4 24 09 3d
       -0.18179223 -0.14276694 -0.07433617 0.033482328
0000d0 7e c2 c8 bc 0a 35 0b bd 26 33 7f bc d4 2c bc bb
       -0.024506804 -0.03398613 -0.01557616 -0.0057426486
0000e0 71 f6 f1 bc e4 d2 84 3c cb 43 ae 3c 59 fe d2 3f
       -0.029536458 0.016213842 0.02127256 1.6483871
0000f0 c1 eb d6 3f ba a3 c5 be e3 7a 4f c0 51 61 7e bf
       1.6790696 -0.38601476 -3.2418754 -0.99367243
000100 25 14 df bf bd 93 bf c0 0a 4b f9 c0 2e 0c 0e c1
       -1.7428023 -5.9867845 -7.79041 -8.877974
000110 73 63 25 c1 46 55 28 c1 59 8c 33 c1 2d a0 74 c1
       -10.33678 -10.520819 -11.221765 -15.289105
000120 e3 ce 1c c1 70 12 3b c1 17 32 3c c1 cd bc 15 c1
       -9.800509 -11.692001 -11.762229 -9.358594
000130 75 08 0a c1 be 2d ff c0 84 b5 72 c0 f8 a1 1f c0
       -8.627065 -7.974334 -3.7923288 -2.4942608
000140 15 d3 ef be e9 39 93 bd d5 fd ed bc 10 ce df 3b
       -0.4684073 -0.0718878 -0.0290517 0.0068299845
000150 18 16 e9 bc b5 fd ca bc 28 26 31 bd b8 8a 27 bf
       -0.028452918 -0.02477918 -0.04324928 -0.65446043
000160 29 a1 8f bf 2f da 1b c0 b5 b8 70 c0 a4 b3 b0 c0
       -1.1221057 -2.4351919 -3.7612736 -5.521929
000170 ef f8 af c0 ca e9 a8 c0 1c 4e ed bf 6a 64 90 c0
       -5.4991374 -5.2785387 -1.8539462 -4.5122576
000180 c2 43 98 c0 46 c3 80 c0 d2 da 57 c0 02 a5 6f c0
       -4.758271 -4.023837 -3.3727307 -3.7444463
000190 1e 4c a6 bf 45 9c 3e c0 c2 6d ae c0 6a e8 b2 c0
       -1.2991979 -2.978288 -5.450898 -5.590871
0001a0 aa 73 5a c0 5e 2d b5 c0 58 64 a0 c0 e9 d6 93 c0
       -3.4133096 -5.661788 -5.012249 -4.619984
0001b0 9b 29 51 c0 b7 0e 72 3e c4 80 18 bd 55 a0 11 3d
       -3.2681644 0.23638426 -0.037232175 0.035553295
0001c0 88 70 d6 3c 13 18 0e bd 99 b4 2a be 9a 44 0b c0
       0.026176706 -0.034690928 -0.16670455 -2.176062
0001d0 7b d3 b9 bf 0a 6e 87 c0 cb 3f c3 c0 14 22 8b c0
       -1.4517664 -4.2321825 -6.101537 -4.34791
0001e0 75 e3 89 c0 b3 6b 70 c0 52 60 bb c0 be f6 13 c0
       -4.3090158 -3.7565734 -5.855508 -2.311935
0001f0 4a 3b 27 c0 22 a6 4d bf e6 50 75 c0 e2 ae cf bf
       -2.6129937 -0.80331624 -3.8330626 -1.6225245
000200 9c 8d 8b c0 08 8d 4c bf 16 17 11 c0 1d a2 86 bf
       -4.3610363 -0.79902697 -2.267034 -1.0518223
000210 2c bb 29 c0 5c ad 4f c0 22 59 23 c0 41 8f 16 bf
       -2.652049 -3.244956 -2.5523152 -0.5881234
000220 3f c0 c8 bf ad a8 89 c0 29 8c 0f c0 ba fc e9 bc
       -1.5683669 -4.3018403 -2.2429297 -0.028562892
000230 68 cc b0 3b 48 cd f3 3b 29 60 88 c0 6c 8c 07 c0
       0.005395461 0.007440243 -4.2617383 -2.1179457
000240 d1 e3 e0 c0 90 9c de c0 0e cb 91 c0 19 00 a4 c0
       -7.0278096 -6.9566116 -4.556037 -5.125012
000250 0f 2d c7 bf bd c7 ef bf db 04 29 bf c7 92 e7 bf
       -1.5560626 -1.873283 -0.66023034 -1.8091668
000260 08 b4 02 c0 cd d4 5d bf 6b 06 59 bf 75 88 38 be
       -2.0422382 -0.86652833 -0.8477542 -0.18020804
000270 b6 e0 94 be 85 8a 23 3e b8 ad 1e bf e4 fa 4b bf
       -0.2907769 0.1597081 -0.61983824 -0.79679704
000280 68 51 15 c0 9d 5f 3c c0 ce d2 05 bf cd 39 d3 c0
       -2.3330936 -2.9433358 -0.5227479 -6.6008058
000290 a8 da 18 c1 b4 86 de c0 4a 97 68 c0 c6 fc d3 bc
       -9.553383 -6.9539433 -3.634234 -0.025877368
0002a0 e0 64 90 3c d6 d7 46 3c 7c 75 55 c0 48 2c 50 c0
       0.017626226 0.01213642 -3.3352957 -3.2527027
0002b0 18 65 88 c0 a0 9a 3d c0 75 fe 39 c0 10 98 0a c0
       -4.2623405 -2.9625626 -2.9061558 -2.1655312
0002c0 10 99 64 c0 15 3d 7c c0 4c 98 d3 bf d6 37 95 be
       -3.5718422 -3.9412282 -1.6530852 -0.29144162
0002d0 47 aa 34 c0 34 40 91 3f 45 00 8d bd a9 3d fb bf
       -2.822893 1.1347718 -0.06884817 -1.9628192
0002e0 14 7b 0d bf 4a 08 d2 bf d0 53 96 3f e0 ff 2c bf
       -0.5526593 -1.640878 1.1744328 -0.67577934
0002f0 d6 17 10 bf c3 81 48 3f c2 eb d2 bf a8 44 00 c0
       -0.5628637 0.78323 -1.6478198 -2.0041904
000300 de 81 ee c0 a3 19 ea c0 bb 7b e1 c0 34 a6 6e be
       -7.453353 -7.3156295 -7.046354 -0.23305589
000310 dd 8a 0b bd 64 02 c5 bf 0b 63 ee bf 2d 02 98 c0
       -0.034067977 -1.5391355 -1.8623976 -4.7502656
000320 e8 3f 7a c0 da 01 52 c0 70 2f 40 c0 69 f9 08 c0
       -3.9101505 -3.281363 -3.0028954 -2.1402228
000330 03 e5 2c c0 fa 95 8c 3e e9 cd 1e 3f a5 86 b3 3f
       -2.7014778 0.27458173 0.62032944 1.4025465
000340 17 94 05 bf b5 d8 e1 3e 11 de 06 bf 44 40 d7 3e
       -0.5217909 0.44110647 -0.52682596 0.42041218
000350 e0 4b 25 bf 4a 47 ad 3f de d4 74 3f f8 4b 4f bf
       -0.645689 1.3537381 0.9563731 -0.80975294
000360 2c f7 ca 3e 1c 31 16 c0 27 41 24 c0 31 e5 dd bf
       0.39641702 -2.3467474 -2.5664766 -1.7335569
000370 cb 3a c3 c0 f4 85 86 c0 bb e9 47 c1 2b 2e f4 bf
       -6.100927 -4.2038517 -12.494563 -1.9076589
000380 db 62 48 40 33 5e 01 c0 05 b2 19 bf d6 06 8f c0
       3.1310337 -2.0213745 -0.6003726 -4.4695845
000390 75 e6 b4 c0 12 d1 8d c0 62 c9 02 c0 c5 fc fb bf
       -5.653132 -4.4317713 -2.0435414 -1.9686514
0003a0 25 1b 0e 3f 50 31 f1 bf d5 65 67 c0 0c 12 8f 3d
       0.5551017 -1.8843174 -3.6155903 0.06985864
0003b0 3e c0 1c 3e 9d d2 9e be 2c 7f 62 3f 91 ec 4f 3e
       0.1530771 -0.3102006 0.884753 0.20305087
0003c0 aa 12 68 3f 6e 06 e7 3e 06 85 12 3f fd 1b 3c bf
       0.9065348 0.45122093 0.5723423 -0.73480207
0003d0 02 88 37 3f 52 07 cc 3e 9b a7 b6 3e 16 6f 49 c0
       0.71691906 0.39849335 0.35674748 -3.1474051
0003e0 ec 33 33 c0 c0 ba 17 c1 30 f2 40 c1 13 0d 21 c0
       -2.800044 -9.483093 -12.059128 -2.516423
0003f0 ad 17 40 bd 89 11 68 bf 79 7a ec 3e f8 80 92 c0
       -0.04689758 -0.90651757 0.4618719 -4.5782433

bias f4 [10]
000000 0b 6b 69 c0 f3 9d 37 40 c7 0f 3c 3f 0c 87 3f bf
       -3.6471584 2.8690155 0.73461574 -0.7481544
000010 47 6f 77 3f 0c 16 a2 40 a6 e3 d7 bf c0 ed 28 40
       0.9665417 5.0651913 -1.6866348 2.639511
000020 11 d3 77 c0 35 20 d7 be
       -3.8722575 -0.4201676
